…
I1209 11:05:39.426198  1721 net.cpp:322] The NetState phase (0) differed from the phase (1) specified by a rule in layer accuracy
I1209 11:05:39.426434  1721 net.cpp:49] Initializing net from parameters: 
name: "CaffeNet"
state {
  phase: TRAIN
}
layer {
  name: "data"
  type: "Data"
  top: "data"
  top: "label"
  include {
    phase: TRAIN
  }
  transform_param {
    mirror: true
    crop_size: 227
    mean_file: "/home/ubuntu/cats-dogs/input/mean.binaryproto"
  }
  data_param {
    source: "/home/ubuntu/cats-dogs/input/train_lmdb"
    batch_size: 256
    backend: LMDB
  }
}
layer {
  name: "conv1"
  type: "Convolution"
  bottom: "data"
  top: "conv1"
  param {
    lr_mult: 1
    decay_mult: 1
  }
  param {
    lr_mult: 2
    decay_mult: 0
  }
  convolution_param {
    num_output: 96
    kernel_size: 11
    stride: 4
    weight_filler {
      type: "gaussian"
      std: 0.01
    }
    bias_filler {
      type: "constant"
      value: 0
    }
  }
}
layer {
  name: "relu1"
  type: "ReLU"
  bottom: "conv1"
  top: "conv1"
}
layer {
  name: "pool1"
  type: "Pooling"
  bottom: "conv1"
  top: "pool1"
  pooling_param {
    pool: MAX
    kernel_size: 3
    stride: 2
  }
}
layer {
  name: "norm1"
  type: "LRN"
  bottom: "pool1"
  top: "norm1"
  lrn_param {
    local_size: 5
    alpha: 0.0001
    beta: 0.75
  }
}
layer {
  name: "conv2"
  type: "Convolution"
  bottom: "norm1"
  top: "conv2"
  param {
    lr_mult: 1
    decay_mult: 1
  }
  param {
    lr_mult: 2
    decay_mult: 0
  }
  convolution_param {
    num_output: 256
    pad: 2
    kernel_size: 5
    group: 2
    weight_filler {
      type: "gaussian"
      std: 0.01
    }
    bias_filler {
      type: "constant"
      value: 1
    }
  }
}
layer {
  name: "relu2"
  type: "ReLU"
  bottom: "conv2"
  top: "conv2"
}
layer {
  name: "pool2"
  type: "Pooling"
  bottom: "conv2"
  top: "pool2"
  pooling_param {
    pool: MAX
    kernel_size: 3
    stride: 2
  }
}
layer {
  name: "norm2"
  type: "LRN"
  bottom: "pool2"
  top: "norm2"
  lrn_param {
    local_size: 5
    alpha: 0.0001
    beta: 0.75
  }
}
layer {
  name: "conv3"
  type: "Convolution"
  bottom: "norm2"
  top: "conv3"
  param {
    lr_mult: 1
    decay_mult: 1
  }
  param {
    lr_mult: 2
    decay_mult: 0
  }
  convolution_param {
    num_output: 384
    pad: 1
    kernel_size: 3
    weight_filler {
      type: "gaussian"
      std: 0.01
    }
    bias_filler {
      type: "constant"
      value: 0
    }
  }
}
layer {
  name: "relu3"
  type: "ReLU"
  bottom: "conv3"
  top: "conv3"
}
layer {
  name: "conv4"
  type: "Convolution"
  bottom: "conv3"
  top: "conv4"
  param {
    lr_mult: 1
    decay_mult: 1
  }
  param {
    lr_mult: 2
    decay_mult: 0
  }
  convolution_param {
    num_output: 384
    pad: 1
    kernel_size: 3
    group: 2
    weight_filler {
      type: "gaussian"
      std: 0.01
    }
    bias_filler {
      type: "constant"
      value: 1
    }
  }
}
layer {
  name: "relu4"
  type: "ReLU"
  bottom: "conv4"
  top: "conv4"
}
layer {
  name: "conv5"
  type: "Convolution"
  bottom: "conv4"
  top: "conv5"
  param {
    lr_mult: 1
    decay_mult: 1
  }
  param {
    lr_mult: 2
    decay_mult: 0
  }
  convolution_param {
    num_output: 256
    pad: 1
    kernel_size: 3
    group: 2
    weight_filler {
      type: "gaussian"
      std: 0.01
    }
    bias_filler {
      type: "constant"
      value: 1
    }
  }
}
layer {
  name: "relu5"
  type: "ReLU"
  bottom: "conv5"
  top: "conv5"
}
layer {
  name: "pool5"
  type: "Pooling"
  bottom: "conv5"
  top: "pool5"
  pooling_param {
    pool: MAX
    kernel_size: 3
    stride: 2
  }
}
layer {
  name: "fc6"
  type: "InnerProduct"
  bottom: "pool5"
  top: "fc6"
  param {
    lr_mult: 1
    decay_mult: 1
  }
  param {
    lr_mult: 2
    decay_mult: 0
  }
  inner_product_param {
    num_output: 4096
    weight_filler {
      type: "gaussian"
      std: 0.005
    }
    bias_filler {
      type: "constant"
      value: 1
    }
  }
}
layer {
  name: "relu6"
  type: "ReLU"
  bottom: "fc6"
  top: "fc6"
}
layer {
  name: "drop6"
  type: "Dropout"
  bottom: "fc6"
  top: "fc6"
  dropout_param {
    dropout_ratio: 0.5
  }
}
layer {
  name: "fc7"
  type: "InnerProduct"
  bottom: "fc6"
  top: "fc7"
  param {
    lr_mult: 1
    decay_mult: 1
  }
  param {
    lr_mult: 2
    decay_mult: 0
  }
  inner_product_param {
    num_output: 4096
    weight_filler {
      type: "gaussian"
      std: 0.005
    }
    bias_filler {
      type: "constant"
      value: 1
    }
  }
}
layer {
  name: "relu7"
  type: "ReLU"
  bottom: "fc7"
  top: "fc7"
}
layer {
  name: "drop7"
  type: "Dropout"
  bottom: "fc7"
  top: "fc7"
  dropout_param {
    dropout_ratio: 0.5
  }
}
layer {
  name: "fc8"
  type: "InnerProduct"
  bottom: "fc7"
  top: "fc8"
  param {
    lr_mult: 1
    decay_mult: 1
  }
  param {
    lr_mult: 2
    decay_mult: 0
  }
  inner_product_param {
    num_output: 2
    weight_filler {
      type: "gaussian"
      std: 0.01
    }
    bias_filler {
      type: "constant"
      value: 0
    }
  }
}
layer {
  name: "loss"
  type: "SoftmaxWithLoss"
  bottom: "fc8"
  bottom: "label"
  top: "loss"
}
I1209 11:05:39.426635  1721 layer_factory.hpp:77] Creating layer data
I1209 11:05:39.427732  1721 net.cpp:106] Creating Layer data
I1209 11:05:39.427754  1721 net.cpp:411] data -> data
I1209 11:05:39.427796  1721 net.cpp:411] data -> label
I1209 11:05:39.427822  1721 data_transformer.cpp:25] Loading mean file from: /home/ubuntu/cats-dogs/input/mean.binaryproto
I1209 11:05:39.428455  1728 db_lmdb.cpp:38] Opened lmdb /home/ubuntu/cats-dogs/input/train_lmdb
I1209 11:05:39.441543  1721 data_layer.cpp:41] output data size: 256,3,227,227
I1209 11:05:39.745002  1721 net.cpp:150] Setting up data
I1209 11:05:39.745067  1721 net.cpp:157] Top shape: 256 3 227 227 (39574272)
I1209 11:05:39.745076  1721 net.cpp:157] Top shape: 256 (256)
I1209 11:05:39.745082  1721 net.cpp:165] Memory required for data: 158298112
I1209 11:05:39.745101  1721 layer_factory.hpp:77] Creating layer conv1
I1209 11:05:39.745141  1721 net.cpp:106] Creating Layer conv1
I1209 11:05:39.745159  1721 net.cpp:454] conv1 <- data
I1209 11:05:39.745184  1721 net.cpp:411] conv1 -> conv1
I1209 11:05:39.886380  1721 net.cpp:150] Setting up conv1
I1209 11:05:39.886430  1721 net.cpp:157] Top shape: 256 96 55 55 (74342400)
I1209 11:05:39.886435  1721 net.cpp:165] Memory required for data: 455667712
I1209 11:05:39.886473  1721 layer_factory.hpp:77] Creating layer relu1
I1209 11:05:39.886497  1721 net.cpp:106] Creating Layer relu1
I1209 11:05:39.886512  1721 net.cpp:454] relu1 <- conv1
I1209 11:05:39.886523  1721 net.cpp:397] relu1 -> conv1 (in-place)
I1209 11:05:39.886690  1721 net.cpp:150] Setting up relu1
I1209 11:05:39.886709  1721 net.cpp:157] Top shape: 256 96 55 55 (74342400)
I1209 11:05:39.886715  1721 net.cpp:165] Memory required for data: 753037312
I1209 11:05:39.886721  1721 layer_factory.hpp:77] Creating layer pool1
I1209 11:05:39.886735  1721 net.cpp:106] Creating Layer pool1
I1209 11:05:39.886741  1721 net.cpp:454] pool1 <- conv1
I1209 11:05:39.886749  1721 net.cpp:411] pool1 -> pool1
I1209 11:05:39.886816  1721 net.cpp:150] Setting up pool1
I1209 11:05:39.886833  1721 net.cpp:157] Top shape: 256 96 27 27 (17915904)
I1209 11:05:39.886838  1721 net.cpp:165] Memory required for data: 824700928
I1209 11:05:39.886871  1721 layer_factory.hpp:77] Creating layer norm1
I1209 11:05:39.886898  1721 net.cpp:106] Creating Layer norm1
I1209 11:05:39.886914  1721 net.cpp:454] norm1 <- pool1
I1209 11:05:39.886922  1721 net.cpp:411] norm1 -> norm1
I1209 11:05:39.887207  1721 net.cpp:150] Setting up norm1
I1209 11:05:39.887229  1721 net.cpp:157] Top shape: 256 96 27 27 (17915904)
I1209 11:05:39.887235  1721 net.cpp:165] Memory required for data: 896364544
I1209 11:05:39.887241  1721 layer_factory.hpp:77] Creating layer conv2
I1209 11:05:39.887259  1721 net.cpp:106] Creating Layer conv2
I1209 11:05:39.887265  1721 net.cpp:454] conv2 <- norm1
I1209 11:05:39.887274  1721 net.cpp:411] conv2 -> conv2
I1209 11:05:39.899616  1721 net.cpp:150] Setting up conv2
I1209 11:05:39.899667  1721 net.cpp:157] Top shape: 256 256 27 27 (47775744)
I1209 11:05:39.899672  1721 net.cpp:165] Memory required for data: 1087467520
I1209 11:05:39.899695  1721 layer_factory.hpp:77] Creating layer relu2
I1209 11:05:39.899713  1721 net.cpp:106] Creating Layer relu2
I1209 11:05:39.899719  1721 net.cpp:454] relu2 <- conv2
I1209 11:05:39.899729  1721 net.cpp:397] relu2 -> conv2 (in-place)
I1209 11:05:39.899991  1721 net.cpp:150] Setting up relu2
I1209 11:05:39.900012  1721 net.cpp:157] Top shape: 256 256 27 27 (47775744)
I1209 11:05:39.900017  1721 net.cpp:165] Memory required for data: 1278570496
I1209 11:05:39.900023  1721 layer_factory.hpp:77] Creating layer pool2
I1209 11:05:39.900038  1721 net.cpp:106] Creating Layer pool2
I1209 11:05:39.900043  1721 net.cpp:454] pool2 <- conv2
I1209 11:05:39.900050  1721 net.cpp:411] pool2 -> pool2
I1209 11:05:39.900108  1721 net.cpp:150] Setting up pool2
I1209 11:05:39.900127  1721 net.cpp:157] Top shape: 256 256 13 13 (11075584)
I1209 11:05:39.900132  1721 net.cpp:165] Memory required for data: 1322872832
I1209 11:05:39.900138  1721 layer_factory.hpp:77] Creating layer norm2
I1209 11:05:39.900154  1721 net.cpp:106] Creating Layer norm2
I1209 11:05:39.900162  1721 net.cpp:454] norm2 <- pool2
I1209 11:05:39.900169  1721 net.cpp:411] norm2 -> norm2
I1209 11:05:39.900342  1721 net.cpp:150] Setting up norm2
I1209 11:05:39.900362  1721 net.cpp:157] Top shape: 256 256 13 13 (11075584)
I1209 11:05:39.900367  1721 net.cpp:165] Memory required for data: 1367175168
I1209 11:05:39.900372  1721 layer_factory.hpp:77] Creating layer conv3
I1209 11:05:39.900390  1721 net.cpp:106] Creating Layer conv3
I1209 11:05:39.900396  1721 net.cpp:454] conv3 <- norm2
I1209 11:05:39.900408  1721 net.cpp:411] conv3 -> conv3
I1209 11:05:39.931140  1721 net.cpp:150] Setting up conv3
I1209 11:05:39.931195  1721 net.cpp:157] Top shape: 256 384 13 13 (16613376)
I1209 11:05:39.931202  1721 net.cpp:165] Memory required for data: 1433628672
I1209 11:05:39.931231  1721 layer_factory.hpp:77] Creating layer relu3
I1209 11:05:39.931251  1721 net.cpp:106] Creating Layer relu3
I1209 11:05:39.931258  1721 net.cpp:454] relu3 <- conv3
I1209 11:05:39.931270  1721 net.cpp:397] relu3 -> conv3 (in-place)
I1209 11:05:39.931546  1721 net.cpp:150] Setting up relu3
I1209 11:05:39.931569  1721 net.cpp:157] Top shape: 256 384 13 13 (16613376)
I1209 11:05:39.931574  1721 net.cpp:165] Memory required for data: 1500082176
I1209 11:05:39.931581  1721 layer_factory.hpp:77] Creating layer conv4
I1209 11:05:39.931602  1721 net.cpp:106] Creating Layer conv4
I1209 11:05:39.931617  1721 net.cpp:454] conv4 <- conv3
I1209 11:05:39.931629  1721 net.cpp:411] conv4 -> conv4
I1209 11:05:39.955466  1721 net.cpp:150] Setting up conv4
I1209 11:05:39.955500  1721 net.cpp:157] Top shape: 256 384 13 13 (16613376)
I1209 11:05:39.955507  1721 net.cpp:165] Memory required for data: 1566535680
I1209 11:05:39.955520  1721 layer_factory.hpp:77] Creating layer relu4
I1209 11:05:39.955538  1721 net.cpp:106] Creating Layer relu4
I1209 11:05:39.955544  1721 net.cpp:454] relu4 <- conv4
I1209 11:05:39.955554  1721 net.cpp:397] relu4 -> conv4 (in-place)
I1209 11:05:39.955811  1721 net.cpp:150] Setting up relu4
I1209 11:05:39.955832  1721 net.cpp:157] Top shape: 256 384 13 13 (16613376)
I1209 11:05:39.955837  1721 net.cpp:165] Memory required for data: 1632989184
I1209 11:05:39.955865  1721 layer_factory.hpp:77] Creating layer conv5
I1209 11:05:39.955884  1721 net.cpp:106] Creating Layer conv5
I1209 11:05:39.955898  1721 net.cpp:454] conv5 <- conv4
I1209 11:05:39.955909  1721 net.cpp:411] conv5 -> conv5
I1209 11:05:39.972744  1721 net.cpp:150] Setting up conv5
I1209 11:05:39.972798  1721 net.cpp:157] Top shape: 256 256 13 13 (11075584)
I1209 11:05:39.972805  1721 net.cpp:165] Memory required for data: 1677291520
I1209 11:05:39.972827  1721 layer_factory.hpp:77] Creating layer relu5
I1209 11:05:39.972846  1721 net.cpp:106] Creating Layer relu5
I1209 11:05:39.972852  1721 net.cpp:454] relu5 <- conv5
I1209 11:05:39.972863  1721 net.cpp:397] relu5 -> conv5 (in-place)
I1209 11:05:39.973022  1721 net.cpp:150] Setting up relu5
I1209 11:05:39.973047  1721 net.cpp:157] Top shape: 256 256 13 13 (11075584)
I1209 11:05:39.973053  1721 net.cpp:165] Memory required for data: 1721593856
I1209 11:05:39.973059  1721 layer_factory.hpp:77] Creating layer pool5
I1209 11:05:39.973070  1721 net.cpp:106] Creating Layer pool5
I1209 11:05:39.973074  1721 net.cpp:454] pool5 <- conv5
I1209 11:05:39.973083  1721 net.cpp:411] pool5 -> pool5
I1209 11:05:39.973139  1721 net.cpp:150] Setting up pool5
I1209 11:05:39.973155  1721 net.cpp:157] Top shape: 256 256 6 6 (2359296)
I1209 11:05:39.973160  1721 net.cpp:165] Memory required for data: 1731031040
I1209 11:05:39.973165  1721 layer_factory.hpp:77] Creating layer fc6
I1209 11:05:39.973187  1721 net.cpp:106] Creating Layer fc6
I1209 11:05:39.973199  1721 net.cpp:454] fc6 <- pool5
I1209 11:05:39.973211  1721 net.cpp:411] fc6 -> fc6
I1209 11:05:41.239739  1721 net.cpp:150] Setting up fc6
I1209 11:05:41.239794  1721 net.cpp:157] Top shape: 256 4096 (1048576)
I1209 11:05:41.239800  1721 net.cpp:165] Memory required for data: 1735225344
I1209 11:05:41.239817  1721 layer_factory.hpp:77] Creating layer relu6
I1209 11:05:41.239836  1721 net.cpp:106] Creating Layer relu6
I1209 11:05:41.239845  1721 net.cpp:454] relu6 <- fc6
I1209 11:05:41.239858  1721 net.cpp:397] relu6 -> fc6 (in-place)
I1209 11:05:41.240331  1721 net.cpp:150] Setting up relu6
I1209 11:05:41.240353  1721 net.cpp:157] Top shape: 256 4096 (1048576)
I1209 11:05:41.240360  1721 net.cpp:165] Memory required for data: 1739419648
I1209 11:05:41.240365  1721 layer_factory.hpp:77] Creating layer drop6
I1209 11:05:41.240386  1721 net.cpp:106] Creating Layer drop6
I1209 11:05:41.240393  1721 net.cpp:454] drop6 <- fc6
I1209 11:05:41.240402  1721 net.cpp:397] drop6 -> fc6 (in-place)
I1209 11:05:41.240442  1721 net.cpp:150] Setting up drop6
I1209 11:05:41.240458  1721 net.cpp:157] Top shape: 256 4096 (1048576)
I1209 11:05:41.240463  1721 net.cpp:165] Memory required for data: 1743613952
I1209 11:05:41.240468  1721 layer_factory.hpp:77] Creating layer fc7
I1209 11:05:41.240487  1721 net.cpp:106] Creating Layer fc7
I1209 11:05:41.240494  1721 net.cpp:454] fc7 <- fc6
I1209 11:05:41.240505  1721 net.cpp:411] fc7 -> fc7
I1209 11:05:41.802417  1721 net.cpp:150] Setting up fc7
I1209 11:05:41.802472  1721 net.cpp:157] Top shape: 256 4096 (1048576)
I1209 11:05:41.802479  1721 net.cpp:165] Memory required for data: 1747808256
I1209 11:05:41.802495  1721 layer_factory.hpp:77] Creating layer relu7
I1209 11:05:41.802517  1721 net.cpp:106] Creating Layer relu7
I1209 11:05:41.802526  1721 net.cpp:454] relu7 <- fc7
I1209 11:05:41.802537  1721 net.cpp:397] relu7 -> fc7 (in-place)
I1209 11:05:41.802799  1721 net.cpp:150] Setting up relu7
I1209 11:05:41.802819  1721 net.cpp:157] Top shape: 256 4096 (1048576)
I1209 11:05:41.802824  1721 net.cpp:165] Memory required for data: 1752002560
I1209 11:05:41.802830  1721 layer_factory.hpp:77] Creating layer drop7
I1209 11:05:41.802840  1721 net.cpp:106] Creating Layer drop7
I1209 11:05:41.802845  1721 net.cpp:454] drop7 <- fc7
I1209 11:05:41.802855  1721 net.cpp:397] drop7 -> fc7 (in-place)
I1209 11:05:41.802886  1721 net.cpp:150] Setting up drop7
I1209 11:05:41.802906  1721 net.cpp:157] Top shape: 256 4096 (1048576)
I1209 11:05:41.802917  1721 net.cpp:165] Memory required for data: 1756196864
I1209 11:05:41.802945  1721 layer_factory.hpp:77] Creating layer fc8
I1209 11:05:41.802965  1721 net.cpp:106] Creating Layer fc8
I1209 11:05:41.802973  1721 net.cpp:454] fc8 <- fc7
I1209 11:05:41.802981  1721 net.cpp:411] fc8 -> fc8
I1209 11:05:41.804008  1721 net.cpp:150] Setting up fc8
I1209 11:05:41.804028  1721 net.cpp:157] Top shape: 256 2 (512)
I1209 11:05:41.804033  1721 net.cpp:165] Memory required for data: 1756198912
I1209 11:05:41.804042  1721 layer_factory.hpp:77] Creating layer loss
I1209 11:05:41.804059  1721 net.cpp:106] Creating Layer loss
I1209 11:05:41.804067  1721 net.cpp:454] loss <- fc8
I1209 11:05:41.804074  1721 net.cpp:454] loss <- label
I1209 11:05:41.804085  1721 net.cpp:411] loss -> loss
I1209 11:05:41.804106  1721 layer_factory.hpp:77] Creating layer loss
…
I1209 11:05:41.805646  1721 net.cpp:322] The NetState phase (1) differed from the phase (0) specified by a rule in layer data
I1209 11:05:41.805889  1721 net.cpp:49] Initializing net from parameters: 
name: "CaffeNet"
state {
  phase: TEST
}
layer {
  name: "data"
  type: "Data"
  top: "data"
  top: "label"
  include {
    phase: TEST
  }
  transform_param {
    mirror: false
    crop_size: 227
    mean_file: "/home/ubuntu/cats-dogs/input/mean.binaryproto"
  }
  data_param {
    source: "/home/ubuntu/cats-dogs/input/validation_lmdb"
    batch_size: 50
    backend: LMDB
  }
}
layer {
  name: "conv1"
  type: "Convolution"
  bottom: "data"
  top: "conv1"
  param {
    lr_mult: 1
    decay_mult: 1
  }
  param {
    lr_mult: 2
    decay_mult: 0
  }
  convolution_param {
    num_output: 96
    kernel_size: 11
    stride: 4
    weight_filler {
      type: "gaussian"
      std: 0.01
    }
    bias_filler {
      type: "constant"
      value: 0
    }
  }
}
layer {
  name: "relu1"
  type: "ReLU"
  bottom: "conv1"
  top: "conv1"
}
layer {
  name: "pool1"
  type: "Pooling"
  bottom: "conv1"
  top: "pool1"
  pooling_param {
    pool: MAX
    kernel_size: 3
    stride: 2
  }
}
layer {
  name: "norm1"
  type: "LRN"
  bottom: "pool1"
  top: "norm1"
  lrn_param {
    local_size: 5
    alpha: 0.0001
    beta: 0.75
  }
}
layer {
  name: "conv2"
  type: "Convolution"
  bottom: "norm1"
  top: "conv2"
  param {
    lr_mult: 1
    decay_mult: 1
  }
  param {
    lr_mult: 2
    decay_mult: 0
  }
  convolution_param {
    num_output: 256
    pad: 2
    kernel_size: 5
    group: 2
    weight_filler {
      type: "gaussian"
      std: 0.01
    }
    bias_filler {
      type: "constant"
      value: 1
    }
  }
}
layer {
  name: "relu2"
  type: "ReLU"
  bottom: "conv2"
  top: "conv2"
}
layer {
  name: "pool2"
  type: "Pooling"
  bottom: "conv2"
  top: "pool2"
  pooling_param {
    pool: MAX
    kernel_size: 3
    stride: 2
  }
}
layer {
  name: "norm2"
  type: "LRN"
  bottom: "pool2"
  top: "norm2"
  lrn_param {
    local_size: 5
    alpha: 0.0001
    beta: 0.75
  }
}
layer {
  name: "conv3"
  type: "Convolution"
  bottom: "norm2"
  top: "conv3"
  param {
    lr_mult: 1
    decay_mult: 1
  }
  param {
    lr_mult: 2
    decay_mult: 0
  }
  convolution_param {
    num_output: 384
    pad: 1
    kernel_size: 3
    weight_filler {
      type: "gaussian"
      std: 0.01
    }
    bias_filler {
      type: "constant"
      value: 0
    }
  }
}
layer {
  name: "relu3"
  type: "ReLU"
  bottom: "conv3"
  top: "conv3"
}
layer {
  name: "conv4"
  type: "Convolution"
  bottom: "conv3"
  top: "conv4"
  param {
    lr_mult: 1
    decay_mult: 1
  }
  param {
    lr_mult: 2
    decay_mult: 0
  }
  convolution_param {
    num_output: 384
    pad: 1
    kernel_size: 3
    group: 2
    weight_filler {
      type: "gaussian"
      std: 0.01
    }
    bias_filler {
      type: "constant"
      value: 1
    }
  }
}
layer {
  name: "relu4"
  type: "ReLU"
  bottom: "conv4"
  top: "conv4"
}
layer {
  name: "conv5"
  type: "Convolution"
  bottom: "conv4"
  top: "conv5"
  param {
    lr_mult: 1
    decay_mult: 1
  }
  param {
    lr_mult: 2
    decay_mult: 0
  }
  convolution_param {
    num_output: 256
    pad: 1
    kernel_size: 3
    group: 2
    weight_filler {
      type: "gaussian"
      std: 0.01
    }
    bias_filler {
      type: "constant"
      value: 1
    }
  }
}
layer {
  name: "relu5"
  type: "ReLU"
  bottom: "conv5"
  top: "conv5"
}
layer {
  name: "pool5"
  type: "Pooling"
  bottom: "conv5"
  top: "pool5"
  pooling_param {
    pool: MAX
    kernel_size: 3
    stride: 2
  }
}
layer {
  name: "fc6"
  type: "InnerProduct"
  bottom: "pool5"
  top: "fc6"
  param {
    lr_mult: 1
    decay_mult: 1
  }
  param {
    lr_mult: 2
    decay_mult: 0
  }
  inner_product_param {
    num_output: 4096
    weight_filler {
      type: "gaussian"
      std: 0.005
    }
    bias_filler {
      type: "constant"
      value: 1
    }
  }
}
layer {
  name: "relu6"
  type: "ReLU"
  bottom: "fc6"
  top: "fc6"
}
layer {
  name: "drop6"
  type: "Dropout"
  bottom: "fc6"
  top: "fc6"
  dropout_param {
    dropout_ratio: 0.5
  }
}
layer {
  name: "fc7"
  type: "InnerProduct"
  bottom: "fc6"
  top: "fc7"
  param {
    lr_mult: 1
    decay_mult: 1
  }
  param {
    lr_mult: 2
    decay_mult: 0
  }
  inner_product_param {
    num_output: 4096
    weight_filler {
      type: "gaussian"
      std: 0.005
    }
    bias_filler {
      type: "constant"
      value: 1
    }
  }
}
layer {
  name: "relu7"
  type: "ReLU"
  bottom: "fc7"
  top: "fc7"
}
layer {
  name: "drop7"
  type: "Dropout"
  bottom: "fc7"
  top: "fc7"
  dropout_param {
    dropout_ratio: 0.5
  }
}
layer {
  name: "fc8"
  type: "InnerProduct"
  bottom: "fc7"
  top: "fc8"
  param {
    lr_mult: 1
    decay_mult: 1
  }
  param {
    lr_mult: 2
    decay_mult: 0
  }
  inner_product_param {
    num_output: 2
    weight_filler {
      type: "gaussian"
      std: 0.01
    }
    bias_filler {
      type: "constant"
      value: 0
    }
  }
}
layer {
  name: "accuracy"
  type: "Accuracy"
  bottom: "fc8"
  bottom: "label"
  top: "accuracy"
  include {
    phase: TEST
  }
}
layer {
  name: "loss"
  type: "SoftmaxWithLoss"
  bottom: "fc8"
  bottom: "label"
  top: "loss"
}
I1209 11:05:41.806080  1721 layer_factory.hpp:77] Creating layer data
I1209 11:05:41.806201  1721 net.cpp:106] Creating Layer data
I1209 11:05:41.806212  1721 net.cpp:411] data -> data
I1209 11:05:41.806224  1721 net.cpp:411] data -> label
I1209 11:05:41.806237  1721 data_transformer.cpp:25] Loading mean file from: /home/ubuntu/cats-dogs/input/mean.binaryproto
I1209 11:05:41.806993  1730 db_lmdb.cpp:38] Opened lmdb /home/ubuntu/cats-dogs/input/validation_lmdb
I1209 11:05:41.808754  1721 data_layer.cpp:41] output data size: 50,3,227,227
I1209 11:05:41.869027  1721 net.cpp:150] Setting up data
I1209 11:05:41.869083  1721 net.cpp:157] Top shape: 50 3 227 227 (7729350)
I1209 11:05:41.869092  1721 net.cpp:157] Top shape: 50 (50)
I1209 11:05:41.869097  1721 net.cpp:165] Memory required for data: 30917600
I1209 11:05:41.869108  1721 layer_factory.hpp:77] Creating layer label_data_1_split
I1209 11:05:41.869129  1721 net.cpp:106] Creating Layer label_data_1_split
I1209 11:05:41.869137  1721 net.cpp:454] label_data_1_split <- label
I1209 11:05:41.869148  1721 net.cpp:411] label_data_1_split -> label_data_1_split_0
I1209 11:05:41.869164  1721 net.cpp:411] label_data_1_split -> label_data_1_split_1
I1209 11:05:41.869324  1721 net.cpp:150] Setting up label_data_1_split
I1209 11:05:41.869343  1721 net.cpp:157] Top shape: 50 (50)
I1209 11:05:41.869350  1721 net.cpp:157] Top shape: 50 (50)
I1209 11:05:41.869354  1721 net.cpp:165] Memory required for data: 30918000
I1209 11:05:41.869359  1721 layer_factory.hpp:77] Creating layer conv1
I1209 11:05:41.869382  1721 net.cpp:106] Creating Layer conv1
I1209 11:05:41.869393  1721 net.cpp:454] conv1 <- data
I1209 11:05:41.869403  1721 net.cpp:411] conv1 -> conv1
I1209 11:05:41.874285  1721 net.cpp:150] Setting up conv1
I1209 11:05:41.874310  1721 net.cpp:157] Top shape: 50 96 55 55 (14520000)
I1209 11:05:41.874316  1721 net.cpp:165] Memory required for data: 88998000
I1209 11:05:41.874333  1721 layer_factory.hpp:77] Creating layer relu1
I1209 11:05:41.874347  1721 net.cpp:106] Creating Layer relu1
I1209 11:05:41.874353  1721 net.cpp:454] relu1 <- conv1
I1209 11:05:41.874361  1721 net.cpp:397] relu1 -> conv1 (in-place)
I1209 11:05:41.874522  1721 net.cpp:150] Setting up relu1
I1209 11:05:41.874541  1721 net.cpp:157] Top shape: 50 96 55 55 (14520000)
I1209 11:05:41.874547  1721 net.cpp:165] Memory required for data: 147078000
I1209 11:05:41.874552  1721 layer_factory.hpp:77] Creating layer pool1
I1209 11:05:41.874565  1721 net.cpp:106] Creating Layer pool1
I1209 11:05:41.874570  1721 net.cpp:454] pool1 <- conv1
I1209 11:05:41.874578  1721 net.cpp:411] pool1 -> pool1
I1209 11:05:41.874630  1721 net.cpp:150] Setting up pool1
I1209 11:05:41.874646  1721 net.cpp:157] Top shape: 50 96 27 27 (3499200)
I1209 11:05:41.874651  1721 net.cpp:165] Memory required for data: 161074800
I1209 11:05:41.874656  1721 layer_factory.hpp:77] Creating layer norm1
I1209 11:05:41.874670  1721 net.cpp:106] Creating Layer norm1
I1209 11:05:41.874675  1721 net.cpp:454] norm1 <- pool1
I1209 11:05:41.874681  1721 net.cpp:411] norm1 -> norm1
I1209 11:05:41.874965  1721 net.cpp:150] Setting up norm1
I1209 11:05:41.874986  1721 net.cpp:157] Top shape: 50 96 27 27 (3499200)
I1209 11:05:41.874992  1721 net.cpp:165] Memory required for data: 175071600
I1209 11:05:41.874997  1721 layer_factory.hpp:77] Creating layer conv2
I1209 11:05:41.875012  1721 net.cpp:106] Creating Layer conv2
I1209 11:05:41.875018  1721 net.cpp:454] conv2 <- norm1
I1209 11:05:41.875027  1721 net.cpp:411] conv2 -> conv2
I1209 11:05:41.886986  1721 net.cpp:150] Setting up conv2
I1209 11:05:41.887029  1721 net.cpp:157] Top shape: 50 256 27 27 (9331200)
I1209 11:05:41.887035  1721 net.cpp:165] Memory required for data: 212396400
I1209 11:05:41.887089  1721 layer_factory.hpp:77] Creating layer relu2
I1209 11:05:41.887112  1721 net.cpp:106] Creating Layer relu2
I1209 11:05:41.887123  1721 net.cpp:454] relu2 <- conv2
I1209 11:05:41.887137  1721 net.cpp:397] relu2 -> conv2 (in-place)
I1209 11:05:41.887399  1721 net.cpp:150] Setting up relu2
I1209 11:05:41.887420  1721 net.cpp:157] Top shape: 50 256 27 27 (9331200)
I1209 11:05:41.887425  1721 net.cpp:165] Memory required for data: 249721200
I1209 11:05:41.887431  1721 layer_factory.hpp:77] Creating layer pool2
I1209 11:05:41.887446  1721 net.cpp:106] Creating Layer pool2
I1209 11:05:41.887451  1721 net.cpp:454] pool2 <- conv2
I1209 11:05:41.887460  1721 net.cpp:411] pool2 -> pool2
I1209 11:05:41.887526  1721 net.cpp:150] Setting up pool2
I1209 11:05:41.887543  1721 net.cpp:157] Top shape: 50 256 13 13 (2163200)
I1209 11:05:41.887549  1721 net.cpp:165] Memory required for data: 258374000
I1209 11:05:41.887554  1721 layer_factory.hpp:77] Creating layer norm2
I1209 11:05:41.887567  1721 net.cpp:106] Creating Layer norm2
I1209 11:05:41.887572  1721 net.cpp:454] norm2 <- pool2
I1209 11:05:41.887579  1721 net.cpp:411] norm2 -> norm2
I1209 11:05:41.887763  1721 net.cpp:150] Setting up norm2
I1209 11:05:41.887783  1721 net.cpp:157] Top shape: 50 256 13 13 (2163200)
I1209 11:05:41.887789  1721 net.cpp:165] Memory required for data: 267026800
I1209 11:05:41.887794  1721 layer_factory.hpp:77] Creating layer conv3
I1209 11:05:41.887810  1721 net.cpp:106] Creating Layer conv3
I1209 11:05:41.887817  1721 net.cpp:454] conv3 <- norm2
I1209 11:05:41.887826  1721 net.cpp:411] conv3 -> conv3
I1209 11:05:41.918618  1721 net.cpp:150] Setting up conv3
I1209 11:05:41.918671  1721 net.cpp:157] Top shape: 50 384 13 13 (3244800)
I1209 11:05:41.918678  1721 net.cpp:165] Memory required for data: 280006000
I1209 11:05:41.918701  1721 layer_factory.hpp:77] Creating layer relu3
I1209 11:05:41.918720  1721 net.cpp:106] Creating Layer relu3
I1209 11:05:41.918735  1721 net.cpp:454] relu3 <- conv3
I1209 11:05:41.918747  1721 net.cpp:397] relu3 -> conv3 (in-place)
I1209 11:05:41.919000  1721 net.cpp:150] Setting up relu3
I1209 11:05:41.919021  1721 net.cpp:157] Top shape: 50 384 13 13 (3244800)
I1209 11:05:41.919028  1721 net.cpp:165] Memory required for data: 292985200
I1209 11:05:41.919033  1721 layer_factory.hpp:77] Creating layer conv4
I1209 11:05:41.919051  1721 net.cpp:106] Creating Layer conv4
I1209 11:05:41.919059  1721 net.cpp:454] conv4 <- conv3
I1209 11:05:41.919069  1721 net.cpp:411] conv4 -> conv4
I1209 11:05:41.946930  1721 net.cpp:150] Setting up conv4
I1209 11:05:41.946979  1721 net.cpp:157] Top shape: 50 384 13 13 (3244800)
I1209 11:05:41.946985  1721 net.cpp:165] Memory required for data: 305964400
I1209 11:05:41.947000  1721 layer_factory.hpp:77] Creating layer relu4
I1209 11:05:41.947018  1721 net.cpp:106] Creating Layer relu4
I1209 11:05:41.947026  1721 net.cpp:454] relu4 <- conv4
I1209 11:05:41.947038  1721 net.cpp:397] relu4 -> conv4 (in-place)
I1209 11:05:41.947315  1721 net.cpp:150] Setting up relu4
I1209 11:05:41.947336  1721 net.cpp:157] Top shape: 50 384 13 13 (3244800)
I1209 11:05:41.947342  1721 net.cpp:165] Memory required for data: 318943600
I1209 11:05:41.947347  1721 layer_factory.hpp:77] Creating layer conv5
I1209 11:05:41.947366  1721 net.cpp:106] Creating Layer conv5
I1209 11:05:41.947378  1721 net.cpp:454] conv5 <- conv4
I1209 11:05:41.947389  1721 net.cpp:411] conv5 -> conv5
I1209 11:05:41.963927  1721 net.cpp:150] Setting up conv5
I1209 11:05:41.963975  1721 net.cpp:157] Top shape: 50 256 13 13 (2163200)
I1209 11:05:41.963981  1721 net.cpp:165] Memory required for data: 327596400
I1209 11:05:41.964004  1721 layer_factory.hpp:77] Creating layer relu5
I1209 11:05:41.964022  1721 net.cpp:106] Creating Layer relu5
I1209 11:05:41.964037  1721 net.cpp:454] relu5 <- conv5
I1209 11:05:41.964049  1721 net.cpp:397] relu5 -> conv5 (in-place)
I1209 11:05:41.964313  1721 net.cpp:150] Setting up relu5
I1209 11:05:41.964334  1721 net.cpp:157] Top shape: 50 256 13 13 (2163200)
I1209 11:05:41.964365  1721 net.cpp:165] Memory required for data: 336249200
I1209 11:05:41.964370  1721 layer_factory.hpp:77] Creating layer pool5
I1209 11:05:41.964387  1721 net.cpp:106] Creating Layer pool5
I1209 11:05:41.964399  1721 net.cpp:454] pool5 <- conv5
I1209 11:05:41.964409  1721 net.cpp:411] pool5 -> pool5
I1209 11:05:41.964473  1721 net.cpp:150] Setting up pool5
I1209 11:05:41.964488  1721 net.cpp:157] Top shape: 50 256 6 6 (460800)
I1209 11:05:41.964493  1721 net.cpp:165] Memory required for data: 338092400
I1209 11:05:41.964498  1721 layer_factory.hpp:77] Creating layer fc6
I1209 11:05:41.964511  1721 net.cpp:106] Creating Layer fc6
I1209 11:05:41.964516  1721 net.cpp:454] fc6 <- pool5
I1209 11:05:41.964525  1721 net.cpp:411] fc6 -> fc6
I1209 11:05:43.231022  1721 net.cpp:150] Setting up fc6
I1209 11:05:43.231082  1721 net.cpp:157] Top shape: 50 4096 (204800)
I1209 11:05:43.231089  1721 net.cpp:165] Memory required for data: 338911600
I1209 11:05:43.231106  1721 layer_factory.hpp:77] Creating layer relu6
I1209 11:05:43.231124  1721 net.cpp:106] Creating Layer relu6
I1209 11:05:43.231132  1721 net.cpp:454] relu6 <- fc6
I1209 11:05:43.231144  1721 net.cpp:397] relu6 -> fc6 (in-place)
I1209 11:05:43.231418  1721 net.cpp:150] Setting up relu6
I1209 11:05:43.231438  1721 net.cpp:157] Top shape: 50 4096 (204800)
I1209 11:05:43.231443  1721 net.cpp:165] Memory required for data: 339730800
I1209 11:05:43.231449  1721 layer_factory.hpp:77] Creating layer drop6
I1209 11:05:43.231461  1721 net.cpp:106] Creating Layer drop6
I1209 11:05:43.231465  1721 net.cpp:454] drop6 <- fc6
I1209 11:05:43.231474  1721 net.cpp:397] drop6 -> fc6 (in-place)
I1209 11:05:43.231516  1721 net.cpp:150] Setting up drop6
I1209 11:05:43.231541  1721 net.cpp:157] Top shape: 50 4096 (204800)
I1209 11:05:43.231547  1721 net.cpp:165] Memory required for data: 340550000
I1209 11:05:43.231552  1721 layer_factory.hpp:77] Creating layer fc7
I1209 11:05:43.231567  1721 net.cpp:106] Creating Layer fc7
I1209 11:05:43.231573  1721 net.cpp:454] fc7 <- fc6
I1209 11:05:43.231583  1721 net.cpp:411] fc7 -> fc7
I1209 11:05:43.793658  1721 net.cpp:150] Setting up fc7
I1209 11:05:43.793715  1721 net.cpp:157] Top shape: 50 4096 (204800)
I1209 11:05:43.793721  1721 net.cpp:165] Memory required for data: 341369200
I1209 11:05:43.793737  1721 layer_factory.hpp:77] Creating layer relu7
I1209 11:05:43.793756  1721 net.cpp:106] Creating Layer relu7
I1209 11:05:43.793764  1721 net.cpp:454] relu7 <- fc7
I1209 11:05:43.793776  1721 net.cpp:397] relu7 -> fc7 (in-place)
I1209 11:05:43.794268  1721 net.cpp:150] Setting up relu7
I1209 11:05:43.794291  1721 net.cpp:157] Top shape: 50 4096 (204800)
I1209 11:05:43.794297  1721 net.cpp:165] Memory required for data: 342188400
I1209 11:05:43.794302  1721 layer_factory.hpp:77] Creating layer drop7
I1209 11:05:43.794315  1721 net.cpp:106] Creating Layer drop7
I1209 11:05:43.794320  1721 net.cpp:454] drop7 <- fc7
I1209 11:05:43.794328  1721 net.cpp:397] drop7 -> fc7 (in-place)
I1209 11:05:43.794369  1721 net.cpp:150] Setting up drop7
I1209 11:05:43.794397  1721 net.cpp:157] Top shape: 50 4096 (204800)
I1209 11:05:43.794402  1721 net.cpp:165] Memory required for data: 343007600
I1209 11:05:43.794407  1721 layer_factory.hpp:77] Creating layer fc8
I1209 11:05:43.794420  1721 net.cpp:106] Creating Layer fc8
I1209 11:05:43.794425  1721 net.cpp:454] fc8 <- fc7
I1209 11:05:43.794435  1721 net.cpp:411] fc8 -> fc8
I1209 11:05:43.794852  1721 net.cpp:150] Setting up fc8
I1209 11:05:43.794872  1721 net.cpp:157] Top shape: 50 2 (100)
I1209 11:05:43.794876  1721 net.cpp:165] Memory required for data: 343008000
I1209 11:05:43.794885  1721 layer_factory.hpp:77] Creating layer fc8_fc8_0_split
I1209 11:05:43.794895  1721 net.cpp:106] Creating Layer fc8_fc8_0_split
I1209 11:05:43.794900  1721 net.cpp:454] fc8_fc8_0_split <- fc8
I1209 11:05:43.794909  1721 net.cpp:411] fc8_fc8_0_split -> fc8_fc8_0_split_0
I1209 11:05:43.794919  1721 net.cpp:411] fc8_fc8_0_split -> fc8_fc8_0_split_1
I1209 11:05:43.794980  1721 net.cpp:150] Setting up fc8_fc8_0_split
I1209 11:05:43.795020  1721 net.cpp:157] Top shape: 50 2 (100)
I1209 11:05:43.795027  1721 net.cpp:157] Top shape: 50 2 (100)
I1209 11:05:43.795032  1721 net.cpp:165] Memory required for data: 343008800
I1209 11:05:43.795037  1721 layer_factory.hpp:77] Creating layer accuracy
I1209 11:05:43.795055  1721 net.cpp:106] Creating Layer accuracy
I1209 11:05:43.795063  1721 net.cpp:454] accuracy <- fc8_fc8_0_split_0
I1209 11:05:43.795069  1721 net.cpp:454] accuracy <- label_data_1_split_0
I1209 11:05:43.795078  1721 net.cpp:411] accuracy -> accuracy
…
